chatbot.tflite (tflite, 223452 bytes, 6 tensors)

sequential/dense_1/BiasAdd/ReadVariableOp f4 [64]
0	0xbe95ead1	-0.29280713
1	0xbe3e9e85	-0.18615158
2	0x3e4c89cf	0.19974445
3	0x3e99f288	0.3006785
4	0x3f332b75	0.69988185
5	0xbe388462	-0.1801925
6	0x3da322fa	0.079656556
7	0xbdcbf7ee	-0.09959398
8	0x3ea4be3d	0.3217639
9	0xbd8285c5	-0.06373171
10	0x3f6521f9	0.89504963
11	0x3dc1c1e4	0.0946081
12	0xbedf48f1	-0.43610337
13	0xbecb6a0d	-0.39729348
14	0xbec799c9	-0.38984516
15	0x3d351b36	0.044215403
16	0xbf1a5ef0	-0.60301113
17	0xbeec4e2e	-0.46153396
18	0xbea7c844	-0.32769978
19	0xbf2ef723	-0.6834585
20	0xbe76e2e8	-0.24109995
21	0xbf0ba85c	-0.5455377
22	0xbf2fee39	-0.68722874
23	0xbefdf526	-0.49601096
24	0x3e5a9bc0	0.21348476
25	0x3e740ddd	0.23833413
26	0x3ec9153d	0.39274016
27	0xbe98e260	-0.2986021
28	0x3e97cc4a	0.29648048
29	0xbf39a465	-0.7251647
30	0x3ef5caa5	0.48006168
31	0x3f28a0f9	0.65870625
32	0xbdf63776	-0.12022297
33	0xbdc60252	-0.09668411
34	0xbe6ed9c6	-0.23325261
35	0xbe0a63d6	-0.13514647
36	0xbedbbd24	-0.4291774
37	0xbe4f6813	-0.20254545
38	0x3f190083	0.59766406
39	0x3d8cb6fd	0.0687084
40	0xbf8f1641	-1.1178666
41	0x3e7ddd5c	0.24791473
42	0x3e4383bd	0.19093223
43	0xbced4978	-0.028965697
44	0x3f8dd85b	1.1081651
45	0xbd37fb3e	-0.044917338
46	0xbebdd98f	-0.37080047
47	0xbe033039	-0.12811364
48	0x3ee796f4	0.45232356
49	0xbee7d8dd	-0.4528264
50	0x3f24b4a5	0.6433814
51	0xbe57b215	-0.21064027
52	0xbd346386	-0.044040225
53	0xbdae4611	-0.08509458
54	0x3efe0b69	0.4961808
55	0xbd209158	-0.03920111
56	0xbf070812	-0.5274669
57	0x3e13d9c1	0.14438535
58	0x3cc9f43e	0.024652597
59	0x3f1dc1ed	0.6162403
60	0xbc228c95	-0.009921213
61	0xbe11255a	-0.14174405
62	0x3f0efa72	0.558509
63	0x3e9d1800	0.30682373

sequential/dense_2/BiasAdd/ReadVariableOp f4 [108]
0	0x3c933a3a	0.0179721
1	0x3f37aa16	0.71743906
2	0x3d582f4a	0.052779473
3	0xbc9c790b	-0.019100687
4	0xbe5d7490	-0.21626496
5	0xbf1348bb	-0.5753285
6	0xbf04c27d	-0.51859266
7	0xbee8036b	-0.45315108
8	0x3ed0cefc	0.40782917
9	0xbf905ae7	-1.1277741
10	0xbe4b29d5	-0.19840176
11	0xbea20a25	-0.31648365
12	0x3f4afc50	0.7929125
13	0x3d799f42	0.060942896
14	0xbe03676c	-0.12832421
15	0xbed1010d	-0.40821114
16	0x3dad6f69	0.084685154
17	0xbe76f1ec	-0.24115723
18	0x3c075730	0.008260533
19	0xbd31adda	-0.04337869
20	0xbf54840f	-0.83014005
21	0xbec02def	-0.37535045
22	0xbed0efdd	-0.40808
23	0x3e068058	0.13134897
24	0xbbce0194	-0.006286809
25	0xbf0f0cbd	-0.5587881
26	0xbf2b4be4	-0.66912675
27	0xbe06114b	-0.13092534
28	0xbf18f211	-0.59744364
29	0xbca91985	-0.020642051
30	0x3e2b7e19	0.16747321
31	0xbf086790	-0.53283024
32	0xbf2a221d	-0.664583
33	0xbf1d45ef	-0.61434835
34	0xbe863173	-0.26209602
35	0xbe08fa3b	-0.13376705
36	0xbe9cfb65	-0.3066055
37	0xbe931eb2	-0.28734356
38	0x3f140829	0.5782495
39	0x3ef3a7ee	0.47589058
40	0xbec64680	-0.38725662
41	0xbd0d769c	-0.034536943
42	0x3ec23c37	0.37936565
43	0xbf784807	-0.96984905
44	0xbeabbf6b	-0.33544478
45	0x3e0896a4	0.13338715
46	0xbebe6b39	-0.3719118
47	0x3f24f979	0.64443165
48	0x402beb41	2.6862338
49	0xbf8a8cdf	-1.082424
50	0x3e0231d8	0.12714326
51	0xbf12f154	-0.5739949
52	0x3d7857bb	0.06063054
53	0x3d06c983	0.03290702
54	0x3e897a21	0.2685099
55	0xbf0f004f	-0.55859846
56	0xbfb69399	-1.4263793
57	0xbe82ff13	-0.2558523
58	0x3f88ec45	1.0697104
59	0xbf2db88f	-0.6785974
60	0xbf119903	-0.568741
61	0xbe051366	-0.12995681
62	0x3f331146	0.6994823
63	0xbec7756e	-0.3895678
64	0x3eb5aa8f	0.35481688
65	0x3ecdf270	0.40224028
66	0xbea0fb33	-0.3144165
67	0xbe7a0453	-0.24415712
68	0x3e7080ee	0.23486683
69	0xbebceb1a	-0.36898118
70	0xbe0f478f	-0.13992141
71	0x3ea2c932	0.31794125
72	0xbdcc4c05	-0.09975437
73	0xbdfc75ab	-0.12327131
74	0xbecc6d8f	-0.39927337
75	0xbf7d77a3	-0.99010676
76	0xbeec0a83	-0.4610177
77	0x3ebbc06a	0.36670238
78	0xbe9b39c1	-0.303175
79	0xbf14d963	-0.58144206
80	0x3f61dda9	0.8822885
81	0xbf292306	-0.66069067
82	0xbf47cfeb	-0.7805163
83	0x3f923fda	1.1425736
84	0x3f2c4357	0.6729025
85	0x3f3ee210	0.74563694
86	0xbc92e31f	-0.017930565
87	0xbd2ca65c	-0.04215084
88	0x3f4d21a3	0.8012945
89	0xbeb33858	-0.35003924
90	0x3f455f32	0.7709838
91	0x3f735934	0.9505799
92	0x3df55259	0.11978597
93	0x3fc80af6	1.5628345
94	0x3f397b0a	0.7245337
95	0x3df517a1	0.119673975
96	0x3f1ec2f0	0.620162
97	0x3f0e960d	0.5569771
98	0x3f2e1f6a	0.68016684
99	0xbd699616	-0.0570279
100	0x3f0bb0c4	0.545666
101	0xbd9b5edd	-0.07586453
102	0x3db6f5e9	0.089336224
103	0xbeca96c8	-0.39568162
104	0x3f5e3e10	0.8681345
105	0x3f1a3625	0.6023887
106	0x3f553e9a	0.8329865
107	0x3e7ffbb1	0.24998356

sequential/dense/BiasAdd/ReadVariableOp f4 [128]
0	0xbd7bca7e	-0.06147241
1	0xbc30daa4	-0.0107943155
2	0xbd64b265	-0.055834193
3	0xbf013c9e	-0.5048312
4	0x3de11e48	0.10992104
5	0xbea0cf06	-0.31407946
6	0xbd810fa6	-0.06301813
7	0xbea84c77	-0.32870838
8	0xbe86b11e	-0.26307005
9	0xbec1e7d0	-0.3787217
10	0xbe7cf015	-0.24700959
11	0xbdc21eb7	-0.09478515
12	0xbe1c9bcb	-0.15293805
13	0xbc3ed3c6	-0.01164717
14	0xbf07ba02	-0.530182
15	0xbe143b76	-0.14475808
16	0xbd854e82	-0.06509115
17	0xbd8f5cf1	-0.07000149
18	0x3dd39f19	0.1033308
19	0xbe7efdb5	-0.24901469
20	0xbd4e232b	-0.050326508
21	0x3ea0e857	0.3142726
22	0xbe6507df	-0.22366284
23	0x3e13f1b4	0.14447671
24	0xbceae5ef	-0.028674094
25	0xbe362013	-0.17785673
26	0xbceeb566	-0.029139232
27	0xbed69db7	-0.41917202
28	0xbe9bd574	-0.3043629
29	0xbe7727fe	-0.2413635
30	0xbe4b6e91	-0.19866396
31	0x3e144235	0.14478381
32	0xbe0d2357	-0.13783012
33	0xbea9d3c0	-0.33169365
34	0xbeb01b14	-0.3439566
35	0x3db5a35c	0.08869049
36	0x3e7c4eef	0.24639486
37	0x3c7e866b	0.015534977
38	0xbe2c7da2	-0.168448
39	0xbd3388bd	-0.043831576
40	0xbe3f370c	-0.18673342
41	0x3cf5809f	0.029968558
42	0x3d841c1a	0.064506724
43	0x3dccb41a	0.09995289
44	0xbe87a181	-0.26490405
45	0xbcabb9cf	-0.020962624
46	0xbe634362	-0.22193673
47	0xbe9384ef	-0.28812358
48	0xbf030034	-0.51172185
49	0xbe77494d	-0.24149056
50	0xbe18da46	-0.14927015
51	0x3e658c6c	0.22416848
52	0xbe47ea98	-0.19523084
53	0x3d4ee734	0.05051346
54	0xbe5643e0	-0.2092433
55	0xbd90256c	-0.07038388
56	0xbe271777	-0.16317545
57	0x3b8af4da	0.0042406144
58	0xbcaa8413	-0.020814931
59	0xbf21007c	-0.62891364
60	0xbe75bb68	-0.23997271
61	0x3e321713	0.17391615
62	0x3cd93381	0.026513817
63	0xbf055202	-0.5207826
64	0xbd30b3b8	-0.043140143
65	0xbe52528e	-0.20539305
66	0xbe021e12	-0.12706783
67	0xbf0f31bb	-0.5593526
68	0xbea2ea4d	-0.31819382
69	0x3dd8ddc1	0.10589171
70	0x3d857ac4	0.06517556
71	0xbe750333	-0.23927002
72	0xbe8f07fc	-0.2793578
73	0xbec57f38	-0.38573623
74	0xbdfa0ded	-0.122096874
75	0xbe174c60	-0.14775229
76	0xbdd2cb9d	-0.102927424
77	0xbd9757dc	-0.07389805
78	0xbe71c9e7	-0.23612176
79	0xbec78263	-0.38966665
80	0xbe89fb75	-0.2694966
81	0x3e368b0b	0.17826478
82	0xbef0a9f7	-0.47004673
83	0xbe7ff504	-0.2499581
84	0x3d5b06c6	0.053473257
85	0x3d94de80	0.07269001
86	0x3d1d35d8	0.038381428
87	0xbe5a53a0	-0.21320963
88	0xbe587f51	-0.21142317
89	0x3e2716ce	0.16317293
90	0x3dae792d	0.08519206
91	0xbe925dc0	-0.2858715
92	0xbd6a9029	-0.057266388
93	0xbf4e6166	-0.8061737
94	0x3d6f6396	0.058444582
95	0xbe6b36cc	-0.22970122
96	0xbc172a99	-0.009226465
97	0xbe7f79e2	-0.24948838
98	0xbf107d80	-0.564415
99	0xbd99b5f6	-0.075054094
100	0x3d5b408b	0.05352835
101	0x3da05a89	0.07829768
102	0xbe1982a6	-0.14991245
103	0x3d417862	0.047233947
104	0x3d6c6cbb	0.05772088
105	0xbe113cc8	-0.14183342
106	0xbd31be8f	-0.04339462
107	0xbe8a347d	-0.2699317
108	0xbd03bc66	-0.032162093
109	0xbe488b31	-0.19584347
110	0xbd1fd5c8	-0.039022237
111	0xbef54dd2	-0.47910935
112	0xbeb78253	-0.35841617
113	0xbdd3e0e6	-0.1034563
114	0xbe884448	-0.26614594
115	0xbee26713	-0.44219264
116	0xbe41e764	-0.18935925
117	0xbe6fcde6	-0.23418388
118	0xbf3629e7	-0.7115769
119	0x3b851fa6	0.0040626107
120	0x3d5536df	0.052054282
121	0xbe4f5ae2	-0.20249513
122	0xbe63f703	-0.22262196
123	0xbf3f694b	-0.7477004
124	0xbd0b57d5	-0.03401931
125	0xbde855e2	-0.11344506
126	0xbd0c50ba	-0.034256674
127	0xbf0fb9fe	-0.56143177

sequential/dense/MatMul f4 [128, 312]
0	0x3def86c3	0.11695626
1	0x3e35684e	0.1771557
2	0x3c6b249a	0.014351988
3	0xbec34547	-0.38138792
4	0xbd2d5010	-0.04231268
5	0xbf007d6b	-0.5019137
6	0xbd48a4e7	-0.048985388
7	0xbc775316	-0.015095493
8	0xbdb92439	-0.09040112
9	0x3e3c1d3b	0.18370526
10	0xbdedfee0	-0.11620879
11	0xbd25c601	-0.040472034
12	0xbcddfc73	-0.027097916
13	0xbbacc90e	-0.005272991
14	0xbdd0184a	-0.10160883
15	0x3d93ed6a	0.072230175
16	0xbe6345b8	-0.22194564
17	0xbda95f8c	-0.08270177
18	0xbea065e9	-0.3132775
19	0xbe19548a	-0.14973655
20	0x3db0c862	0.0863197
21	0x3d45bd0c	0.048275992
22	0x3d7b4b08	0.061350852
23	0xbd3ab4f3	-0.045582723
24	0xbcac3e1e	-0.021025714
25	0xbe95565a	-0.29167444
26	0xbe30c18a	-0.1726133
27	0xbe012893	-0.12613134
28	0xbdec5074	-0.11538783
29	0x3f21a89c	0.631479
30	0x3ea46193	0.32105693
31	0xbdb6b854	-0.089218765
32	0xbe434977	-0.19070993
33	0x3f0f5682	0.55991375
34	0xbe20fb5e	-0.15720889
35	0xbe17b9d5	-0.14816983
36	0x3d3b4979	0.045724366
37	0xbc7f5fb0	-0.0155867785
38	0xbd0c6d17	-0.034283724
39	0x3c60a563	0.013711306
40	0x3dc494c2	0.09598686
41	0x3e8716d2	0.26384598
42	0x3e3c8fac	0.18414181
43	0xbd079ee5	-0.033110518
44	0x3e8ccba7	0.27499124
45	0xbd9585bf	-0.07300901
46	0xbcd2f231	-0.025750251
47	0xb80cbaa1	-3.3552413e-05
48	0xbdac02e6	-0.0839899
49	0xbe333967	-0.17502366
50	0xbe0ecd16	-0.13945422
51	0x3f89aa20	1.0755043
52	0xbd7a112e	-0.06105154
53	0x3e8e3e5b	0.27781948
54	0x3d0e9e99	0.03481922
55	0x3daeb32c	0.08530268
56	0xbdeee699	-0.11665077
57	0xbe0cd5b3	-0.13753395
58	0x3dcd67c5	0.10029558
59	0xbde9fa81	-0.11424733
60	0xbe232a5e	-0.1593413
61	0xbeba89db	-0.364333
62	0xbcf8979e	-0.030345734
63	0x3dd8073c	0.10548255
64	0xbe474994	-0.19461662
65	0x3dcae0d7	0.09906166
66	0x3e9e2f3f	0.3089542
67	0x3d357378	0.044299573
68	0xbdbe95fc	-0.09305951
69	0xbd44fa14	-0.048090056
70	0xbd84a108	-0.06476027
71	0x3d4c0c3c	0.049816355
72	0xbf1dd303	-0.61650103
73	0xbdd785c6	-0.10523562
74	0x3e622d89	0.22087683
75	0xbe0c7997	-0.13718258
76	0xbb6e980d	-0.0036406547
77	0xbdd8d5cb	-0.10587653
78	0x3e515a4d	0.20444603
79	0xbda15644	-0.07877782
80	0x3d2b24bb	0.041783076
81	0xbe0a7e90	-0.13524842
82	0xbe413332	-0.18867186
83	0x3f64865b	0.8926751
84	0x3edda624	0.43290818
85	0xbdefc333	-0.11707153
86	0xbd9acc3f	-0.07558488
87	0xbde792e7	-0.11307316
88	0xbe12584d	-0.14291497
89	0xbe8ffaf8	-0.2812116
90	0xbc6fc4d0	-0.014634326
91	0xbd93326e	-0.07187353
92	0x3d4b4741	0.0496285
93	0x3ea87cb3	0.32907638
94	0xbd739f84	-0.059478298
95	0xbe2ddcc6	-0.1697875
96	0xbd9b9e7a	-0.075985864
97	0x3bcaec36	0.0061927093
98	0xbd392a26	-0.04520621
99	0x3e6c3c29	0.23069824
100	0x3ae303c5	0.0017319849
101	0xbd8fc0b3	-0.07019176
102	0xbe8c9744	-0.27459157
103	0xbe27789f	-0.16354607
104	0xbea5a33b	-0.32351097
105	0xbe6c7561	-0.23091651
106	0xbd3c09ed	-0.045907903
107	0xbe12f868	-0.14352572
108	0x3f14fb68	0.58196115
109	0xbd021c58	-0.031765312
110	0xbee35d8c	-0.44407308
111	0x3f3f6ed7	0.74778503
112	0x3f9851f9	1.1900016
113	0x3e33ec39	0.1757058
114	0xbd6d2934	-0.057900622
115	0xbd359da7	-0.044339802
116	0x3c4a2edd	0.012340275
117	0xbdb61045	-0.08889822
118	0xbe8d37a9	-0.27581528
119	0xbc5b5b60	-0.013388485
120	0xbde5ef3a	-0.112272695
121	0xbe1e08cf	-0.15433048
122	0xbeec3008	-0.46130395
123	0x3c913ecc	0.01773014
124	0xbde65378	-0.11246389
125	0x3d271506	0.040791534
126	0x3dfada37	0.122486524
127	0xbd53c8a1	-0.051705007
128	0xbdc32c3f	-0.09529924
129	0xbcafcb08	-0.021459118
130	0xbcf93bab	-0.03042396
131	0xbce2475c	-0.027621917
132	0xbd704c87	-0.058666732
133	0x3de127cb	0.10993918
134	0xbec3ae6c	-0.3821901
135	0xbe63de2e	-0.22252724
136	0xbdf2d7bc	-0.11857554
137	0x3d7626b1	0.060095493
138	0x3f160be5	0.586119
139	0x3e57b048	0.2106334
140	0x3d90196d	0.070360996
141	0xbd940a34	-0.072285086
142	0x3ce721af	0.028214304
143	0xbd91845c	-0.07105324
144	0xbdfb76a5	-0.12278489
145	0xbded68a5	-0.11592225
146	0xbe166a7c	-0.14689058
147	0xbe1dd969	-0.15414967
148	0x3e9faeb5	0.31187978
149	0xbca7c141	-0.020477893
150	0x3d74652a	0.05966679
151	0x3eada3c6	0.33914012
152	0xbd42ae2c	-0.047529384
153	0xbde91665	-0.113812245
154	0xbde0c06a	-0.109742
155	0xbd02fe4a	-0.03198079
156	0x3bf57de7	0.0074918154
157	0x3f77fecf	0.9687318
158	0x3d8b5fff	0.06805419
159	0xbe07d74d	-0.13265724
160	0xbcf65137	-0.030068023
161	0x3d52ca8a	0.051462688
162	0x3b88998a	0.004168694
163	0x3e4c4a7b	0.19950287
164	0xbd13048a	-0.035893
165	0xbd1107c3	-0.035407793
166	0xbbe3ec6d	-0.0069556744
167	0x3d09797c	0.033563122
168	0x3cecc156	0.028900784
169	0xbdddd244	-0.108311206
170	0xbe1ab045	-0.15106304
171	0xbe1683e0	-0.14698744
172	0xbe2c5f3d	-0.16833206
173	0xbdac1ce4	-0.08403948
174	0xbbde63e0	-0.0067868084
175	0xbc852c0c	-0.016256355
176	0x3c1e0f49	0.009647199
177	0xbe178bb4	-0.14799386
178	0xbda69fb7	-0.08135932
179	0xbc9472e3	-0.018121189
180	0xbdf3c73b	-0.119032346
181	0xbe316ff7	-0.17327867
182	0xbe05460f	-0.13015006
183	0xbde0d0ef	-0.10977351
184	0x3dde11e6	0.108432576
185	0xbe80073e	-0.25005525
186	0x3e830c58	0.25595355
187	0x3cd29312	0.025704894
188	0xbdc4f742	-0.09617473
189	0xbe296d3c	-0.16545576
190	0xbd0e00fa	-0.0346689
191	0x3e88e594	0.26737654
192	0x3e12a6a9	0.14321388
193	0x3ebe650b	0.37186465
194	0x3d4d0545	0.050053854
195	0x3e0c7dec	0.1371991
196	0xbdb31e3b	-0.087460004
197	0xbe34983c	-0.17636198
198	0x3e8936f6	0.26799744
199	0x3ce2844a	0.027650971
200	0xbd1c8a1e	-0.038217656
201	0xbb87d3b8	-0.004145112
202	0xbf4af9f6	-0.7928766
203	0xbd2d89e6	-0.04236784
204	0xbd0f7a6b	-0.035028856
205	0xbc249e82	-0.010047557
206	0x3d5ad837	0.053428855
207	0x3d9f6757	0.077833824
208	0x3fbed143	1.4907612
209	0xbd9dd75a	-0.07707091
210	0xbe6ec94c	-0.23318976
211	0xbcb43dab	-0.022002062
212	0x3d8a0592	0.06739344
213	0xbd0a93ac	-0.033832237
214	0xbee8660f	-0.45390365
215	0xbd941dcd	-0.072322465
216	0xbdc14314	-0.09436622
217	0x3ee01fe1	0.43774322
218	0x3c3d48a0	0.01155296
219	0x3e2f5c5f	0.1712508
220	0xba6c2f2e	-0.0009009716
221	0xbe5b4a65	-0.21415098
222	0x3dfc941a	0.12332936
223	0xbd77cca4	-0.060497895
224	0x3da3fe83	0.08007529
225	0xbe759b6a	-0.23985067
226	0xbe6c9fbf	-0.23107813
227	0x3e11a4f3	0.1422308
228	0xbe1fdfd7	-0.15612732
229	0xbcec4a58	-0.028844044
230	0x3d5ad820	0.05342877
231	0x3d1b1a69	0.037866984
232	0xbdd62511	-0.104562886
233	0x3e96799a	0.2938965
234	0xbd88bdd7	-0.06676834
235	0xbe096b51	-0.13419844
236	0x3e2a330e	0.16621038
237	0xbe208297	-0.15674816
238	0xbde583e4	-0.11206797
239	0xbe74e9c3	-0.23917298
240	0x3ec4f96e	0.3847155
241	0xbdc00843	-0.09376576
242	0x3eb807a5	0.35943332
243	0xbccdad17	-0.02510695
244	0xbd83d0db	-0.064363204
245	0x3e208635	0.15676196
246	0x3e77bdd7	0.24193512
247	0x3ce2475d	0.02762192
248	0x3ed8f1fa	0.42372113
249	0xbe22ca0a	-0.15897384
250	0xbd85d830	-0.06535375
251	0xbe50bdbb	-0.20384876
252	0xbeb96932	-0.3621307
253	0x3c51e7f1	0.012811647
254	0x3e2214a6	0.15828189
255	0xbe5c472b	-0.21511523

sequential/dense_1/MatMul f4 [64, 128]
0	0xbe570bb6	-0.21000561
1	0x3ed22ed2	0.41051346
2	0xbf17e1c4	-0.59328866
3	0xbf0a6eba	-0.54075205
4	0x3ea33679	0.31877497
5	0xbedaf89c	-0.427678
6	0x3ea4ea5a	0.32210046
7	0xbe7b140c	-0.24519366
8	0x3d6f56e5	0.05843248
9	0xbe3426d7	-0.17592941
10	0x3e4de4bd	0.20106788
11	0xbe0f2a55	-0.13980992
12	0xbbfaa81f	-0.007649436
13	0xbe7dda6d	-0.24790354
14	0x3e4b4a09	0.19852461
15	0x3f36b6ce	0.7137269
16	0x3d2294dc	0.039692745
17	0xbedf174c	-0.43572462
18	0x3e2b59a9	0.16733421
19	0x3ca71f84	0.02040077
20	0xbe5f6eb8	-0.2181958
21	0x3d137a63	0.03600539
22	0xbe35fc5e	-0.17772052
23	0xbe46cfa5	-0.19415148
24	0x3cf011be	0.029305335
25	0xbe56f376	-0.2099131
26	0x3e9ab4a2	0.30215937
27	0xbe83938d	-0.2569851
28	0xbf00bc79	-0.50287586
29	0xbe2448ee	-0.16043445
30	0x3d974879	0.0738687
31	0x3ec2b1df	0.3802633
32	0x3ecbeeb8	0.39830565
33	0x3f1a3608	0.60238695
34	0x3d68f74c	0.056876466
35	0xbe173dbc	-0.14769644
36	0x3eb932ea	0.36171657
37	0xbe23beb0	-0.1599071
38	0xbbe54033	-0.0069961785
39	0xbf1431c0	-0.5788841
40	0x3dbcadd3	0.09212842
41	0xbe8554bf	-0.2604122
42	0xbd614da6	-0.055005692
43	0x3cbefbfa	0.023313511
44	0xbe0e2746	-0.13882169
45	0xbf1bebb0	-0.60906506
46	0xbeec0663	-0.46098623
47	0x3d01907e	0.03163194
48	0xbb8e2ac0	-0.0043385923
49	0x3cd1de0e	0.02561858
50	0xbf29bfe3	-0.6630842
51	0x3f2f068c	0.68369365
52	0x3dbe8568	0.09302789
53	0x3f081a5e	0.53165233
54	0x3e4a9792	0.19784382
55	0xbe5aaeb0	-0.213557
56	0x3e9d6b88	0.30746102
57	0xbe74c375	-0.23902686
58	0xbebc57b1	-0.36785653
59	0x3d20477d	0.039130677
60	0xbefb76e6	-0.4911415
61	0xbef101f0	-0.4707179
62	0x3cd83e21	0.026396813
63	0x3ecd7f0c	0.40135992
64	0x3e3056a6	0.17220554
65	0xbf20e17b	-0.62844056
66	0x3ef1ca94	0.47224867
67	0xbf181703	-0.59410113
68	0xbe9a5e56	-0.30150098
69	0xbe1da0a2	-0.15393308
70	0x3f058393	0.5215389
71	0x3ecf35f5	0.40470853
72	0xbe9839ef	-0.297317
73	0xbdcf2a25	-0.1011546
74	0x3c62af84	0.0138357915
75	0xbf5b0c02	-0.855652
76	0x3f18528b	0.5950095
77	0xbea9c8ec	-0.33161104
78	0xbeea0cb2	-0.4571281
79	0x3c737ac6	0.014860814
80	0x3eadefa0	0.33971882
81	0xbe51c24a	-0.20484272
82	0xbe12203e	-0.14270112
83	0xbe869210	-0.26283312
84	0x3e9e58fa	0.3092726
85	0xbddc4aeb	-0.10756477
86	0xbe2b8f7b	-0.16753952
87	0xbe87ba64	-0.26509392
88	0x3e1dadb9	0.15398301
89	0x3eac0ba1	0.33602622
90	0xbf25fa8e	-0.6483544
91	0x3eb723fc	0.3576964
92	0x3e481dfc	0.19542688
93	0xbf0eee1e	-0.5583209
94	0x3ecbbe27	0.39793512
95	0xbe2f0b91	-0.17094256
96	0xbe880fc5	-0.2657453
97	0x3f2053e1	0.6262799
98	0xbee7f72a	-0.4530576
99	0x3f67ccf3	0.905471
100	0xbdc739d6	-0.09727828
101	0x3e47c00d	0.19506855
102	0x3eb9f14f	0.36316916
103	0xbf10d70c	-0.56578135
104	0xbc591306	-0.013249164
105	0xbec83635	-0.39103857
106	0x3e644aee	0.22294208
107	0xbf3341d9	-0.7002235
108	0xbed6cf01	-0.41954806
109	0x3e81b8c3	0.25336275
110	0x3e3ffd8d	0.18749066
111	0xbec1173d	-0.37713042
112	0x3e831abe	0.2560634
113	0x3e330621	0.17482807
114	0x3bef334b	0.007299816
115	0xbeedfc0c	-0.4648136
116	0x3e9522ce	0.29128116
117	0xbddc898a	-0.10768421
118	0xbd960bac	-0.07326445
119	0x3ea78d63	0.32725057
120	0xbd93585d	-0.07194588
121	0x3f07c007	0.53027385
122	0x3f1bd06b	0.60864896
123	0xbe9bd835	-0.3043839
124	0x3e6607c3	0.22463898
125	0xbf1063d1	-0.5640231
126	0x3f012cc7	0.5045895
127	0x3e3f0fa3	0.18658309
128	0x3e7c6ead	0.24651594
129	0xbf29087c	-0.6602857
130	0xbe89e7c2	-0.2693463
131	0x3df561d4	0.1198155
132	0xbecc0ba6	-0.39852637
133	0xbe45f759	-0.19332637
134	0x3f077ca9	0.5292459
135	0xbeccd90d	-0.40009347
136	0xbf28c9e6	-0.6593307
137	0x3e200ede	0.15630671
138	0x3da23f3f	0.079222195
139	0x3e0c446f	0.1369798
140	0x3ba99614	0.0051753614
141	0xbf5b04f7	-0.8555445
142	0x3e2bc276	0.167734
143	0xbd8369ff	-0.064167015
144	0x3d0fc9c4	0.035104528
145	0x3dfe14ec	0.12406334
146	0x3bbed7c8	0.005824063
147	0x3cc967d1	0.024585636
148	0xbeebd446	-0.4606039
149	0xbb84dc54	-0.0040545855
150	0x3ea1f7ba	0.31634313
151	0xbed250a8	-0.4107716
152	0xbdba8d23	-0.09108951
153	0x3f10c40e	0.56549156
154	0x3eb741f9	0.3579252
155	0x3e01383d	0.1261911
156	0xbee5089e	-0.44733137
157	0x3e8fe78a	0.28106338
158	0xbeafdeea	-0.34349757
159	0x3c56b788	0.013105281
160	0xbf5da581	-0.86580664
161	0x3e106319	0.14100303
162	0xbf49d9a9	-0.7884775
163	0xbe4b9df3	-0.19884472
164	0x3f56ebd9	0.83953625
165	0xbf3c664e	-0.73593605
166	0x3e742a07	0.23844157
167	0xba5c80d8	-0.0008411533
168	0xbe3ce9ba	-0.18448535
169	0xbe92ce2f	-0.2867293
170	0xbf13ebfb	-0.5778195
171	0xb9ce26b4	-0.00039320218
172	0x3e8a4406	0.27005023
173	0xbecc7c25	-0.39938465
174	0xbddec5fb	-0.108776055
175	0xbe031a68	-0.12803042
176	0x3ee641ff	0.44972226
177	0xbb00fb22	-0.0019680937
178	0x3e5a4615	0.21315797
179	0xbdb26a32	-0.087116614
180	0x3f113a85	0.5672992
181	0xbe9ff4bf	-0.31241414
182	0xbe26efd8	-0.1630243
183	0xbe925879	-0.28583124
184	0x3e12512d	0.14288779
185	0xbf74d55f	-0.9563808
186	0x3ef129dc	0.4710225
187	0x3ec0870e	0.3760304
188	0xbe7ab8b3	-0.2448452
189	0x3e833d07	0.25632498
190	0x3de93ccc	0.11388549
191	0x3f1242a9	0.57132965
192	0x3ee7c097	0.45264122
193	0xbdb6d55e	-0.08927415
194	0x3f0c2d28	0.547564
195	0xbd960070	-0.07324302
196	0xbf57aedf	-0.8425121
197	0xbf22fe47	-0.63669246
198	0xbb91d3af	-0.0044502835
199	0xbe7d1059	-0.24713267
200	0x3e8967bb	0.26836953
201	0xbca0815f	-0.019592939
202	0xbefcb6ab	-0.49358115
203	0x3eef9f01	0.46800998
204	0x3d313307	0.043261554
205	0x3e6ea747	0.23305999
206	0x3dc145ca	0.09437139
207	0x3d0dd757	0.034629192
208	0x3d11d666	0.035604857
209	0xbcb808c8	-0.022465125
210	0xbd4c0a13	-0.049814295
211	0xbd5dad75	-0.0541205
212	0x3ecfaed2	0.40563065
213	0x3f22a1d4	0.6352818
214	0x3d62ea69	0.055399332
215	0xbb1e8466	-0.0024187802
216	0xbf1565ea	-0.58358634
217	0xbe27d9b4	-0.16391641
218	0xbed3fb89	-0.41402844
219	0x3e5cc362	0.21558908
220	0xbe7afb56	-0.2450994
221	0xbeed97e2	-0.4640494
222	0x3e863c23	0.26217756
223	0x3e4fed8a	0.20305458
224	0x3ebbd9ca	0.36689597
225	0x3e968fb2	0.29406506
226	0xbf286e31	-0.6579314
227	0xbe87361d	-0.26408473
228	0xbf0e6831	-0.55627733
229	0x3ea0c370	0.31399107
230	0x3e7ef6e0	0.24898863
231	0x3ef261dd	0.4734029
232	0x3e12d8f5	0.14340575
233	0x3e979af4	0.29610407
234	0x3df9c687	0.12196069
235	0x3dd55066	0.104157254
236	0x3e9d4fbf	0.30724904
237	0xbd46cfca	-0.048538007
238	0x3e38ced7	0.18047653
239	0x3e71c8e2	0.23611787
240	0x3ee97ca6	0.45602912
241	0xbeba925a	-0.36439782
242	0xbf299ae9	-0.66252
243	0x3eddbc24	0.43307602
244	0xbf32dedd	-0.6987131
245	0x3e21ac79	0.1578845
246	0xbe4d362a	-0.20040193
247	0xbce86a6d	-0.02837106
248	0xbf27a64b	-0.6548812
249	0x3d0e10bd	0.03468393
250	0xbe45700d	-0.19281025
251	0x3ea53d91	0.32273534
252	0xbeea27fa	-0.45733625
253	0x3e772ce6	0.24138221
254	0xbea84bc0	-0.32870293
255	0xbd67e2db	-0.05661283

sequential/dense_2/MatMul f4 [108, 64]
0	0x3f0ce004	0.5502932
1	0x3f06ca13	0.5265209
2	0xbeacacd3	-0.33725604
3	0xbf2b6a00	-0.6695862
4	0xbee96f69	-0.45592812
5	0xbe9710cd	-0.29505005
6	0xbe35447f	-0.1770191
7	0xbef6936b	-0.48159346
8	0xbe41e972	-0.18936709
9	0x3f5d059a	0.8633667
10	0xbef39cc9	-0.47580555
11	0x3f677ad1	0.9042178
12	0x3f4d8f9d	0.8029726
13	0xbdf19352	-0.11795677
14	0xbed4c462	-0.41556078
15	0x3f060f2d	0.52366906
16	0xbe38a1ee	-0.18030521
17	0xbda021a3	-0.07818916
18	0xbd918adc	-0.071065634
19	0x3ed95483	0.4244729
20	0x3f1f1529	0.6214166
21	0xbec0a008	-0.37622094
22	0x3f00f95a	0.5038048
23	0x3f52ead9	0.823896
24	0xbf140f86	-0.57836187
25	0x3eb45d10	0.3522725
26	0xbf099869	-0.53748184
27	0xbea091ae	-0.31361145
28	0xbeb2a223	-0.34889325
29	0xbecb59f6	-0.39717072
30	0xbee922f7	-0.4553449
31	0xbe3ef11c	-0.18646663
32	0xbf022175	-0.508323
33	0xbeb380ee	-0.35059303
34	0xbe9c0361	-0.30471328
35	0xbeb9c047	-0.36279508
36	0xbedd521b	-0.43226704
37	0xbea44e54	-0.3209101
38	0xbf306ba0	-0.6891422
39	0x3ef25f89	0.47338513
40	0x3f0ecdeb	0.55782956
41	0xbf00c4be	-0.50300205
42	0x3f338341	0.7012215
43	0xbee132d2	-0.43984085
44	0x3f527882	0.8221513
45	0xbf0bf991	-0.54677683
46	0xbec70b07	-0.388756
47	0x3f18a1cd	0.5962189
48	0xbf06b784	-0.5262377
49	0x3f00f126	0.50367963
50	0xbd304eef	-0.043044027
51	0x3eb6934f	0.35659263
52	0xbf1ad6bd	-0.60483915
53	0xbecf3899	-0.40472868
54	0xbe851c64	-0.25998223
55	0x3ed3bf6a	0.41356975
56	0xbf15eeab	-0.58567303
57	0xbee5b995	-0.4486815
58	0x3f128e59	0.57248455
59	0xbf0efc5f	-0.5585384
60	0x3f652008	0.89502
61	0x3f227933	0.63466185
62	0xbf0019a7	-0.5003914
63	0xbef0f1b3	-0.47059402
64	0x3c753998	0.014967345
65	0xbde73ec8	-0.112912714
66	0x3f26d552	0.6516925
67	0x3f11a8df	0.568983
68	0x3d12d18c	0.03584437
69	0x3e2fc359	0.17164363
70	0x3cb4aa53	0.022053873
71	0xbe7c5bc4	-0.24644381
72	0xbe173c48	-0.14769089
73	0xbea560ea	-0.32300502
74	0xbea71d78	-0.3263967
75	0xbe8ba6c9	-0.27275684
76	0xbe4d16d6	-0.20028242
77	0x3e32b318	0.17451131
78	0xbea4c1bc	-0.32179058
79	0xbeba5666	-0.36394042
80	0xbe919908	-0.28437066
81	0xbe49bb9d	-0.19700475
82	0x3e3c8b50	0.18412519
83	0x3e217f42	0.15771201
84	0xbea45a52	-0.3210016
85	0x3cff8638	0.03119193
86	0xbec41a11	-0.38301137
87	0xbe3448a9	-0.17605843
88	0x3f114d76	0.5675882
89	0x3de2fcae	0.11083351
90	0xbcd96a89	-0.026540058
91	0x3f1b6564	0.60701585
92	0x3f436fa1	0.7634221
93	0xbe85c221	-0.2612467
94	0x3f316873	0.693
95	0x3d08dae7	0.033411887
96	0x3edce7b2	0.4314552
97	0xbd70b313	-0.05876453
98	0x3f2cacef	0.67451376
99	0x3ef19895	0.47186723
100	0x3ebc7cac	0.36813867
101	0xbe43be60	-0.19115591
102	0xbe83765f	-0.25676247
103	0x3e0930a6	0.13397464
104	0xbe741814	-0.2383731
105	0x3f7878a9	0.9705911
106	0xbecbe117	-0.39820167
107	0xbe94602c	-0.28979623
108	0x3e3376bb	0.17525761
109	0x3eb9de40	0.36302376
110	0xbe4546d3	-0.19265299
111	0xbf0420e2	-0.51612675
112	0xbe4abf6a	-0.19799581
113	0x3f035e95	0.51316196
114	0xbe429abf	-0.19004343
115	0x3f433fc3	0.7626917
116	0xbed3bf28	-0.41356778
117	0xbebf364b	-0.3734611
118	0x3c29a5db	0.010354484
119	0x3ea3ab4b	0.31966624
120	0x3f14440f	0.5791635
121	0x3dd4b8b1	0.103867896
122	0xbeb5c03d	-0.3549823
123	0xbde94761	-0.113905676
124	0xbeb360cc	-0.35034788
125	0xbe703874	-0.23459035
126	0xbd40c2dc	-0.047060832
127	0x3f0f0335	0.5586427
128	0xbe80531f	-0.25063416
129	0x3f47f2cc	0.78104854
130	0xbe4fa9a1	-0.20279552
131	0xbebbe4e7	-0.36698076
132	0xbe9ea021	-0.30981544
133	0x3f3934a6	0.7234596
134	0xbeaa5478	-0.3326757
135	0x3e751e72	0.23937395
136	0xbea05f3d	-0.3132266
137	0x3e3c9236	0.1841515
138	0xbc9b08e6	-0.018925142
139	0xbe9128c2	-0.28351408
140	0xbeea9c71	-0.4582248
141	0x3ee0716f	0.43836543
142	0xbed4294f	-0.41437766
143	0xbe9fb3da	-0.31191903
144	0x3dc03ecf	0.0938698
145	0x3f04a493	0.5181362
146	0xbd0eb8a8	-0.03484407
147	0x3ed235b1	0.41056588
148	0xbe792820	-0.24331713
149	0xbe962036	-0.2932145
150	0xbdfc0143	-0.12304928
151	0xbe884e9f	-0.26622483
152	0xbe0a1d05	-0.13487633
153	0xbebd2cde	-0.36948293
154	0x3f0d2f39	0.5515018
155	0xbda07208	-0.0783425
156	0x3f8d1b31	1.1023923
157	0xbdc02722	-0.09382464
158	0xbe0d088e	-0.13772795
159	0x3f118296	0.56839883
160	0x3f2177d5	0.63073474
161	0x3d920500	0.0712986
162	0xbe6380fc	-0.22217172
163	0x3f4da2ad	0.8032635
164	0xbebe9de3	-0.37229833
165	0xbd98b0de	-0.0745561
166	0xbe88bc96	-0.2670638
167	0xbdef77c4	-0.11692765
168	0x3e31722e	0.17328712
169	0xbe74dc12	-0.23912075
170	0xbe0df3f9	-0.138626
171	0x3dc89d33	0.09795608
172	0xbcb82d51	-0.022482546
173	0x3f2383a4	0.6387274
174	0x3f575456	0.8411306
175	0xbe912f5f	-0.28356454
176	0xbe9fc032	-0.3120132
177	0xbcaa147c	-0.02076172
178	0xbeb5ef84	-0.35534298
179	0x3e0d8843	0.13821511
180	0x3efcfd89	0.49412182
181	0x3dbc805d	0.09204171
182	0xbeafa1c6	-0.3430311
183	0xbed3895c	-0.41315734
184	0xbd313458	-0.04326281
185	0xbeb5bb68	-0.35494542
186	0xbdec6c28	-0.11544067
187	0xbe8dadef	-0.27671763
188	0x3ee63374	0.4496113
189	0xbed22abe	-0.41048235
190	0x3edcb92a	0.4311002
191	0xbe96540d	-0.29361
192	0xbe646ca3	-0.22307067
193	0xbe9c4846	-0.3052389
194	0xbe5d4397	-0.21607815
195	0xbe9dfac7	-0.3085539
196	0xbe7d5583	-0.24739651
197	0xbe2a4cbe	-0.16630837
198	0xbe15bfda	-0.14623967
199	0xbe8c8409	-0.27444485
200	0xbd6ff1bd	-0.05858015
201	0x3e0d7c93	0.13817053
202	0xbe578cf1	-0.21049859
203	0xbe1d1590	-0.15340257
204	0x3eef7812	0.46771294
205	0x3f039ced	0.51411325
206	0x3f6d77fd	0.9276121
207	0x3b6b2b62	0.0035884012
208	0xbeeac1d7	-0.45851013
209	0x3e6d2f55	0.23162587
210	0xbe6270ab	-0.22113292
211	0xbe4ed8a9	-0.20199837
212	0x3f51405d	0.81738836
213	0xbe9be179	-0.3044546
214	0x3f1b3a7b	0.6063611
215	0x3e09b996	0.13449702
216	0xbe4e7e37	-0.20165335
217	0x3f26cefb	0.6515958
218	0xbed4941b	-0.41519246
219	0xbe8a0015	-0.26953188
220	0xbe2bd140	-0.16779041
221	0xbe9f4b0a	-0.31111938
222	0xbeb9fa7e	-0.36323923
223	0xbed54066	-0.41650695
224	0xbebca565	-0.36844936
225	0x3f3be46e	0.7339543
226	0x3e4f31f6	0.20233902
227	0xbe48a2f8	-0.19593418
228	0x3ed3ae26	0.41343802
229	0xbe662f2d	-0.22478934
230	0xbe280409	-0.1640779
231	0x3f156e00	0.5837097
232	0x3d496045	0.049164075
233	0xbe3b10b3	-0.18268089
234	0xbdbcc573	-0.09217348
235	0xbec817fe	-0.39080805
236	0xbd684537	-0.056706633
237	0x3f1a5c24	0.60296845
238	0xbcb0be0d	-0.021574998
239	0xbcb8cdd7	-0.02255909
240	0xbec19ab1	-0.37813333
241	0x3f2e2f02	0.6804048
242	0x3dc912cf	0.098180406
243	0x3dc2c005	0.09509281
244	0x3ec147e1	0.37750152
245	0xbe96e0d2	-0.294684
246	0xbeb40868	-0.35162663
247	0x3e7237b7	0.23654066
248	0xbe6ccdfb	-0.2312545
249	0x3f37525c	0.71610045
250	0xbe9d37eb	-0.30706725
251	0x3e6cf434	0.23140031
252	0xbec7d495	-0.39029375
253	0x3f9a6edb	1.206508
254	0xbe35e43a	-0.17762843
255	0x3ef1a337	0.47194836
